-------------------------
Parâmetros
-------------------------
Modelo
_________________________________________________________________
Layer (type)                 Output Shape              Param #   
=================================================================
input_71 (InputLayer)        [(None, 64, 64, 1)]       0         
_________________________________________________________________
conv2d_64 (Conv2D)           (None, 62, 62, 4)         40        
_________________________________________________________________
max_pooling2d_64 (MaxPooling (None, 31, 31, 4)         0         
_________________________________________________________________
flatten_70 (Flatten)         (None, 3844)              0         
_________________________________________________________________
dense_140 (Dense)            (None, 4096)              15749120  
_________________________________________________________________
dense_141 (Dense)            (None, 2)                 8194      
=================================================================
Total params: 15,757,354
Trainable params: 15,757,354
Non-trainable params: 0
_________________________________________________________________
-------------------------
Treinando
step: 0, loss: 0.036068, acc: 1.000000
step: 1, loss: 0.266817, acc: 1.000000
step: 2, loss: 0.491586, acc: 0.875000
step: 3, loss: 0.347615, acc: 0.750000
…
